data.pth (torch, 12785 bytes, 6 tensors)

l1.weight f4 [8, 201]
00000000: 85cd 13bf 6ead 183f c8b3 de3d 4cd3 053e
00000010: 6826 4c3d 17f3 06bd 8393 273e 4b64 1a3f
00000020: ccb6 173d 1424 03bf 761c d3bc 4def af3d
00000030: dfd9 eb3e 72c7 3c3f f287 3abe 13d2 74be
00000040: 9a98 123f 452d d03e 4b97 92be 3635 923e
00000050: 958c aebd c131 903d 406a a1be 3ea4 3a3c
00000060: 9c0c c93e f605 933e afb1 76be d574 783e
00000070: ce93 1fbf df01 b43e 8469 8a3e 6efa 1d3f
00000080: f9b3 a1be 4202 813e 4cf1 91be 41d3 c1bc
00000090: f829 a83e 7a27 c83d 7496 183e 665b 71be
000000a0: 3d45 913e 619e 63be 62d2 4d3e b448 0c3f
000000b0: dca7 5c3d af9d 713c 9666 80be 9b04 1a3f
000000c0: 7f56 1e3f 8399 d2be 5e62 87bd 789d 8f3e
000000d0: 5087 9d3e dc91 253e 66ab c03e 3632 623e
000000e0: 48f0 f0be de00 7a3d 0cbb e7be c8bf 163e
000000f0: c7ab 073f a487 fb3e aaca a33e 5ab3 623e
00000100: 7ec2 383f 7c04 ed3e 4f15 3bbd 57fd f2bd
00000110: b4eb f43e e406 203e a964 f5bc 7478 59be
00000120: ce28 dcba 3ecf 1abf 6f85 61be 05ee 863e
00000130: 5c3f 8c3e bc75 ca3e 0e20 793e 414b 653f
00000140: a799 763e 8dd9 5bbe bf6c 01bc a948 8bbe
00000150: d165 5abe f55a 78be 092b b63e 3f9e 57be
00000160: ea38 0cbe 8287 643e adb9 02bf 59d7 943e
00000170: b04a 2b3e 0736 3c3e 7c59 a9be e52b d93d
00000180: 2dd0 eb3d ebc1 363f 5d8c 71bc 2ff5 883e
00000190: 5d55 ad3e e956 a63e d335 283e 6042 80bd
000001a0: afeb 113f cc2f ebbe 943b 183f 7be4 403e
000001b0: 8132 a23e 7ea2 393f ab41 b3be 0174 ce3e
000001c0: 2857 053e b72c 933e 2bd3 d2bd 76c2 673e
000001d0: 300d fc3c c153 613e c916 983e 3f42 56be
000001e0: 8955 96be 45b0 883e 4008 8c3e 9467 083c
000001f0: d9e7 27be cf1e bebe e086 ba3e f6d4 153e
00000200: 8fbe d03e 4f66 c73d 8de4 073f 4d35 5ebe
00000210: 76bd c43e 8e38 3f3f 08d9 a23e c4db 923e
00000220: 1ce2 a33e add7 a63e 4c62 40be cb38 1e3e
00000230: b2d8 123e 5f45 ddbd 0424 dd3d 7739 1a3e
00000240: 9f00 543e b232 ca3e ccf0 353e 4574 dd3e
00000250: a0f0 783e 33c3 2bbe b9e1 f93e 851d c13e
00000260: 084c 6e3e b6b0 98be 88c3 773e 06f7 c43e
00000270: c0d0 d9be f294 6dbb dfa5 823e 2b40 ae3e
00000280: e101 9f3e e082 ab3e 18b9 613e b266 b33e
00000290: 4575 473f a995 b13e 68d9 6a3f eb0c 0bbf
000002a0: 8ce1 e9be 2be9 673e f735 a1be 4082 a43e
000002b0: 01f9 663e 86cb d63e 853c 7b3f a63c 0e3f
000002c0: 5f5f e13e ee65 b83e 1b2e 4f3e 5558 2fbe
000002d0: c82e 76be ef9b 4fbe d298 73be 4db2 293f
000002e0: fff8 013f 357b 7a3e cbca b23e 27b7 143f
000002f0: 171a 933e 2b6a a63e 21e0 3abe 3e9a e43e
00000300: 7c77 3e3e 3d17 9d3e 2012 e7bd cf38 3c3e
00000310: b721 213f da07 c7be e5a5 703e 6ba4 893e
00000320: 443c 493e ab95 153f abde c5be fb5c c93d
00000330: 4069 e23d a1a5 19be 5071 dbbc 4986 593e
00000340: b78e cebe e539 c63e e5db 8cbe 0723 f43e
00000350: 8859 b63d 9eb0 9f3e df6e 83bf 2eb6 843e
00000360: 78f1 19bf c2db 81be 8159 1fbd ff40 003e
00000370: 76ef 16be c73c c2be fd33 1c3f 31c8 97be
00000380: 13bd 0f3f dfc1 9b3e 8633 34bc f840 b4be
00000390: 354e 2bbe 576c 463f 0899 98be 3c51 053d
000003a0: f61e 8b3e f4e6 053f 527c b43d c229 c33e
000003b0: 71ae bf3e 0a0b da3e 1e37 2d3e 7b94 323e
000003c0: d2b1 7ebe be07 7fbe 999b d4be 0cd4 883e
000003d0: eec3 56be a7ea a23e ab8c 153e d2ed c83d
000003e0: af23 60bd 6234 efbe 2281 233f 0f31 0c3f
000003f0: 2ede 71be 6be0 343e 12f6 363f 2a8e 55be
-0.5773547 0.5963963 0.10874134 0.13068885 0.049841315 -0.032946672 0.16364865 0.60309285
0.037039563 -0.51226926 -0.025770407 0.08590565 0.4606466 0.7374183 -0.18215922 -0.23908262
0.572641 0.40659538 -0.28631052 0.28556222 -0.08522908 0.0704074 -0.31526375 0.011391697
0.39267433 0.28715485 -0.24091218 0.24263318 -0.6233491 0.35157678 0.27033627 0.6171025
-0.3158262 0.25197035 -0.28504407 -0.023660304 0.3284452 0.097731546 0.14901143 -0.23570022
0.28373137 -0.22228386 0.20099786 0.54798436 0.05387102 0.014747067 -0.25078267 0.6016328
0.6185073 -0.41132745 -0.06610559 0.28049827 0.30767298 0.16168922 0.37630767 0.22089466
-0.4705832 0.061035983 -0.45259893 0.14721596 0.52996486 0.49126923 0.31990558 0.2213873
0.7217177 0.46292484 -0.04567462 -0.11864727 0.47836077 0.15627629 -0.029955225 -0.21237355
-0.0016796829 -0.60472476 -0.22023557 0.2635347 0.2739209 0.3954295 0.24328634 0.89567953
0.24082051 -0.21469708 -0.007899462 -0.27203873 -0.21327902 -0.24253447 0.35579708 -0.2105646
-0.13693586 0.22317317 -0.5106457 0.29070547 0.1672771 0.18379985 -0.33076084 0.10604075
0.11514316 0.71389645 -0.014742938 0.2674956 0.3385419 0.32488182 0.16426782 -0.0626266
0.5700025 -0.45934904 0.5946591 0.18837158 0.31679156 0.7251357 -0.35011038 0.4032288
0.13021529 0.28745052 -0.10294183 0.22632775 0.030768007 0.22004606 0.29704884 -0.20923708
-0.29362133 0.26696983 0.27350044 0.008325476 -0.16397037 -0.3713288 0.36431026 0.1463202
0.40770385 0.09736311 0.53083116 -0.2170002 0.38425797 0.7469567 0.31806207 0.28683293
0.32008445 0.32586423 -0.18787497 0.15451352 0.14340475 -0.10804247 0.10797885 0.15060984
0.20703362 0.39491802 0.17767638 0.4325277 0.24310541 -0.16773681 0.48805025 0.37717834
0.23271191 -0.2982232 0.24195683 0.38469714 -0.42542076 -0.0036252108 0.25517175 0.3403333
0.3105612 0.33498287 0.22043264 0.35039288 0.77913314 0.34684494 0.91737986 -0.54316586
-0.4567989 0.2264754 -0.31486484 0.32130623 0.22555925 0.4195215 0.9813922 0.5556129
0.44018075 0.36015266 0.20232432 -0.1712354 -0.24041283 -0.20274328 -0.23788765 0.6628769
0.5077056 0.24461062 0.34920344 0.5809197 0.28730842 0.32502875 -0.18249561 0.44648927
0.18600267 0.30681792 -0.11282754 0.18381046 0.6294207 -0.38873178 0.23500784 0.26883253
0.19651896 0.584315 -0.38646445 0.09832188 0.11055231 -0.15004589 -0.02678743 0.21242632
-0.40343258 0.38716045 -0.27511516 0.47682974 0.089037955 0.31189436 -1.026821 0.25920242
-0.6013408 -0.25362974 -0.038903717 0.12524794 -0.14739785 -0.37936994 0.6101683 -0.2964492
0.5614788 0.3042135 -0.010998612 -0.35205817 -0.16729052 0.77509063 -0.29804254 0.032548174
0.2717206 0.5230553 0.08812775 0.38117796 0.37437776 0.42586547 0.16915557 0.17439453
-0.2487252 -0.24905297 -0.41524962 0.2672428 -0.20973179 0.3181965 0.14604442 0.098109856
-0.05472153 -0.46719652 0.63868916 0.5476236 -0.23619911 0.17663734 0.71469223 -0.20855013

l1.bias f4 [8]
00000000: fcd7 783f adba e73e f9cb e53e 0c31 583f
00000010: c295 183f cda8 9d3f 6485 2c3f 0ebf 4e3f
0.97204566 0.4525961 0.4488218 0.8444984 0.5960351 1.2317139 0.6739104 0.80760276

l2.weight f4 [8, 8]
00000000: b33f 1f3f 3e33 d33f dcf4 1ebe 5391 ca3f
00000010: 1d9f 813f a128 c1bf 43c7 e83f 38ee 563f
00000020: ed4f 2cbf de39 0f3f 9f44 9b3f 3e5b 84bf
00000030: 09a5 b13f 37a7 ae3d c98a b13c 152c b23f
00000040: a3cd 8c3f d150 08bf e578 d63e 95f2 8e3e
00000050: dfa8 ffbf 71bf 403d d48c bc3f 64dd b43f
00000060: 6dd8 c3bd fe48 bdbf 3edf 653f f086 1e3f
00000070: 156c dd3d f4f1 293f c1d4 1bbe 5916 0840
00000080: e6c1 a23e f2a1 58bf 49ef ddbf eb53 ed3f
00000090: e428 ab3f 979d a4bd 641d a03e 61e4 b0be
000000a0: 200b 9d3f 0c8b 283f ae0b 86bd b187 0e3d
000000b0: a7d5 fa3f 3b0d ab3f 1286 27bf 529b a5bf
000000c0: c02c 0f40 c8a4 dcbf c6f9 8dbe 05c7 c5bf
000000d0: e195 863f 9e91 743f df93 833e a87c c13c
000000e0: 304d 82be abbe 643f 672e 13bf d808 c03f
000000f0: a211 a8be 061a 0740 3a36 f4bd 7ac0 fbbe
0.6220657 1.6500013 -0.15523094 1.58256 1.0126683 -1.5090524 1.818581 0.8395724
-0.6730946 0.55947673 1.2130316 -1.0340345 1.387849 0.085279875 0.021672623 1.3919703
1.1000255 -0.53248316 0.4188911 0.2791945 -1.997341 0.047057573 1.4730477 1.4130063
-0.09562764 -1.47879 0.89793766 0.6192465 0.10811631 0.66384816 -0.15217878 2.126364
0.31788558 -0.8462211 -1.7338649 1.8541235 1.3371854 -0.080378704 0.31272423 -0.3454924
1.226902 0.6583717 -0.065451965 0.034797374 1.9596452 1.3363413 -0.6543895 -1.2938025
2.2371063 -1.7237787 -0.27729625 -1.5451361 1.051449 0.95534694 0.25698754 0.023619011
-0.25449514 0.89353436 -0.5749268 1.5002699 -0.32825953 2.1109633 -0.119244054 -0.49170285

l2.bias f4 [8]
00000000: 1d2d 69be bac2 cb3d 4834 383f 4cee 113f
00000010: 6a8a b2be 3709 ba3d 7540 453f 7188 8b3f
-0.22771116 0.099492505 0.71954775 0.5700424 -0.34871227 0.09083789 0.7705148 1.0901014

l3.weight f4 [11, 8]
00000000: 6463 4fbf 2429 1cc0 713a 05c0 1821 2dbf
00000010: cf2d b03f 1308 943e 7cb1 fa3d a65b 7c3e
00000020: c46b 55be 9dd6 9f3f 46f9 13c0 bd2c 9e3e
00000030: a50f debf 606d 6bbe 2a31 9bbf 018e 553e
00000040: 0f2f f23d fab4 2fc0 092d 0d3e be76 c7bf
00000050: 0378 ccbf 6f13 953d 8b20 c33e dea7 da3d
00000060: 22c5 203f 872f 2cbf 0313 ddbf aee3 ccbf
00000070: bf70 373f e544 8a3e fc50 dfbf 7fb1 13bf
00000080: 3edd f0bf 66eb dabf b772 9abf 46ee d5be
00000090: ca20 eabf 7fbd 4d3f d38f 9abf a453 b33f
000000a0: bf65 a63e a8dd 72bf 3b70 0d3f 61f1 6b3e
000000b0: 550a edbf df56 00c0 b346 07c0 32d1 b33e
000000c0: ed3e 0bc0 7f50 453e 15c2 b8bf 6038 473d
000000d0: ce8a aabf b568 103f 5834 933f 3d72 e9bd
000000e0: f320 0fc0 6dec bb3e 04ef 943d eb13 923f
000000f0: de33 32bf 6db8 9bbf 5501 89bf 253f a43e
00000100: 0037 3fbb f55b 3bc0 cb74 83be 75cc c73d
00000110: 35bb bf3f 24a5 a8bf 4728 adbf 95e9 c1bd
00000120: 72dd 55bf 8f07 0fbf 514d 503f 6cae d63e
00000130: ddfb d8bf b66e d4bf 4a96 343f 46c5 e6bf
00000140: a4f8 103f 009b d93c 4b08 22bf 498a 80bc
00000150: 4b5d cebe 279e f5bd 0f93 d0be 6613 fcbf
-0.81011033 -2.440011 -2.081692 -0.6762862 1.376398 0.2891241 0.12240884 0.24644336
-0.2084189 1.248737 -2.3120894 0.30893508 -1.7348524 -0.22990942 -1.2124379 0.20854951
0.11825382 -2.745421 0.13786711 -1.5583112 -1.5974125 0.07279097 0.38110766 0.106765494
0.628008 -0.6726002 -1.7271427 -1.6006982 0.7165641 0.27005687 -1.744659 -0.5769271
-1.8817518 -1.7103088 -1.2066258 -0.4178335 -1.8291256 0.80367273 -1.2075142 1.40099
0.324995 -0.9486947 0.55249375 0.23041297 -1.8518778 -2.0053022 -2.1136901 0.3512054
-2.1757157 0.19268988 -1.4434229 0.048637748 -1.332361 0.5640977 1.1500349 -0.11398742
-2.236386 0.36703816 0.07272151 1.1412328 -0.69610393 -1.2165657 -1.0703532 0.32079425
-0.002917707 -2.9274876 -0.25675043 0.09755794 1.4979006 -1.3175397 -1.3527917 -0.0946838
-0.83541024 -0.5587091 0.81367975 0.41929948 -1.6951863 -1.6596286 0.7054182 -1.8028953
0.56629395 0.026563168 -0.63293904 -0.01569094 -0.40305552 -0.11993056 -0.40737197 -1.969342

l3.bias f4 [11]
00000000: 21b0 b1be 3647 033f de0a 493e f50e 27bd
00000010: 3e99 5c3e bbdc 493e d798 123e b5c1 783e
00000020: d342 d3be f7a7 febd 4126 63bd
-0.34704688 0.51280534 0.19633052 -0.04078575 0.21542832 0.19713108 0.14316116 0.24292643
-0.4126192 -0.124343805 -0.055456404
